Neural Network Tools for STM32AI v1.6.0 (STM.ai v7.1.0-RC3)
Created date          : 2022-06-07 09:34:00
Parameters            : generate --name language_classification -m C:/Users/fphal/Desktop/ML4UC/model_cnn.tflite --type tflite --compression 1 --verbosity 1 --workspace C:\Users\fphal\AppData\Local\Temp\mxAI_workspace6532432465670012091261263823829062 --output C:\Users\fphal\.stm32cubemx\language_classification_output

Exec/report summary (generate)
------------------------------------------------------------------------------------------------------------------------
model file            : C:\Users\fphal\Desktop\ML4UC\model_cnn.tflite
type                  : tflite
c_name                : language_classification
compression           : None
workspace dir         : C:\Users\fphal\AppData\Local\Temp\mxAI_workspace6532432465670012091261263823829062
output dir            : C:\Users\fphal\.stm32cubemx\language_classification_output
model_name            : model_cnn
model_hash            : 6b04d918eff0262354a6c6abf1216543
input 1/1             : 'serving_default_input_10'
                        7500 items, 7.32 KiB, ai_i8, scale=0.00392157, zero_point=-128, (1,625,12,1), domain:user/
output 1/1            : 'nl_16_0_conversion'
                        3 items, 3 B, ai_i8, scale=0.00390625, zero_point=-128, (1,1,1,3), domain:user/
params #              : 662,355 items (648.46 KiB)
macc                  : 76,888,188
weights (ro)          : 664,020 B (648.46 KiB) (1 segment)
activations (rw)      : 37,888 B (37.00 KiB) (1 segment)
ram (total)           : 45,391 B (44.33 KiB) = 37,888 + 7,500 + 3

Model name - model_cnn ['serving_default_input_10'] ['nl_16']
--------------------------------------------------------------------------------------------------------------------------------------------------------------------------
id   layer (type)                       oshape          param/size        macc         connected to               |   c_size   c_macc              c_type                
--------------------------------------------------------------------------------------------------------------------------------------------------------------------------
0    serving_default_input_10 (Input)   (1,625,12,1)                                                              |                               
     conv2d_0 (Conv2D)                  (1,625,12,16)   160/208           1,080,016    serving_default_input_10   |            +270,432(+25.0%)    optimized_conv2d(i)[0]
     nl_0_nl (Nonlinearity)             (1,625,12,16)                     120,000      conv2d_0                   |            -120,000(-100.0%)  
--------------------------------------------------------------------------------------------------------------------------------------------------------------------------
1    pool_1 (Pool)                      (1,313,6,16)                      270,432      nl_0_nl                    |            -270,432(-100.0%)  
--------------------------------------------------------------------------------------------------------------------------------------------------------------------------
2    conv2d_2 (Conv2D)                  (1,313,6,32)    7,712/7,808       14,423,072   pool_1                     |            +226,080(+1.6%)     optimized_conv2d(i)[1]
     nl_2_nl (Nonlinearity)             (1,313,6,32)                      60,096       conv2d_2                   |            -60,096(-100.0%)   
--------------------------------------------------------------------------------------------------------------------------------------------------------------------------
3    pool_3 (Pool)                      (1,157,3,32)                      226,080      nl_2_nl                    |            -226,080(-100.0%)  
--------------------------------------------------------------------------------------------------------------------------------------------------------------------------
4    conv2d_4 (Conv2D)                  (1,157,3,64)    30,784/30,976     14,469,184   pool_3                     |            +152,640(+1.1%)     optimized_conv2d(i)[2]
     nl_4_nl (Nonlinearity)             (1,157,3,64)                      30,144       conv2d_4                   |            -30,144(-100.0%)   
--------------------------------------------------------------------------------------------------------------------------------------------------------------------------
5    pool_5 (Pool)                      (1,53,3,64)                       152,640      nl_4_nl                    |            -152,640(-100.0%)  
--------------------------------------------------------------------------------------------------------------------------------------------------------------------------
6    conv2d_6 (Conv2D)                  (1,53,3,128)    123,008/123,392   19,538,048   pool_5                     |            +103,680(+0.5%)     optimized_conv2d(i)[3]
     nl_6_nl (Nonlinearity)             (1,53,3,128)                      20,352       conv2d_6                   |            -20,352(-100.0%)   
--------------------------------------------------------------------------------------------------------------------------------------------------------------------------
7    pool_7 (Pool)                      (1,18,3,128)                      103,680      nl_6_nl                    |            -103,680(-100.0%)  
--------------------------------------------------------------------------------------------------------------------------------------------------------------------------
8    conv2d_8 (Conv2D)                  (1,18,3,256)    491,776/492,544   26,542,336   pool_7                     |            +69,120(+0.3%)      optimized_conv2d(i)[4]
     nl_8_nl (Nonlinearity)             (1,18,3,256)                      13,824       conv2d_8                   |            -13,824(-100.0%)   
--------------------------------------------------------------------------------------------------------------------------------------------------------------------------
9    pool_9 (Pool)                      (1,6,3,256)                       69,120       nl_8_nl                    |            -69,120(-100.0%)   
--------------------------------------------------------------------------------------------------------------------------------------------------------------------------
10   pool_10 (Pool)                     (1,1,1,256)                       4,608        pool_9                     |                                pool(i)[5]            
     reshape_10_reshape (Reshape)       (1,1,1,256)                                    pool_10                    |                               
--------------------------------------------------------------------------------------------------------------------------------------------------------------------------
11   reshape_11 (Reshape)               (1,1,1,256)                                    reshape_10_reshape         |                               
--------------------------------------------------------------------------------------------------------------------------------------------------------------------------
12   dense_12 (Dense)                   (1,1,1,32)      8,224/8,320       8,224        reshape_11                 |                                dense(i)[6]           
     nl_12_nl (Nonlinearity)            (1,1,1,32)                        32           dense_12                   |            -32(-100.0%)       
--------------------------------------------------------------------------------------------------------------------------------------------------------------------------
13   dense_13 (Dense)                   (1,1,1,16)      528/576           528          nl_12_nl                   |                                dense(i)[7]           
     nl_13_nl (Nonlinearity)            (1,1,1,16)                        16           dense_13                   |            -16(-100.0%)       
--------------------------------------------------------------------------------------------------------------------------------------------------------------------------
14   dense_14 (Dense)                   (1,1,1,8)       136/160           136          nl_13_nl                   |                                dense(i)[8]           
     nl_14_nl (Nonlinearity)            (1,1,1,8)                         8            dense_14                   |            -8(-100.0%)        
--------------------------------------------------------------------------------------------------------------------------------------------------------------------------
15   dense_15 (Dense)                   (1,1,1,3)       27/36             27           nl_14_nl                   |            +6(+22.2%)          dense(i)/conv()[9, 10]
--------------------------------------------------------------------------------------------------------------------------------------------------------------------------
16   nl_16 (Nonlinearity)               (1,1,1,3)                         45           dense_15                   |            +6(+13.3%)          nl()/conv(i)/o[11, 12]
--------------------------------------------------------------------------------------------------------------------------------------------------------------------------
model/c-model: macc=77,132,648/76,888,188 -244,460(-0.3%) weights=664,020/664,020  activations=--/37,888 io=--/7,503



Generated C-graph summary
------------------------------------------------------------------------------------------------------------------------
model name            : model_cnn
c-name                : language_classification
c-node #              : 13
c-array #             : 42
activations size      : 37888 (1 segments)
weights size          : 664020 (1 segments)
macc                  : 76888188
inputs                : ['serving_default_input_10_output']
outputs               : ['nl_16_0_conversion_output']

C-Arrays (42)
------------------------------------------------------------------------------------------------------------------------------------
c_id   name (*_array)                    item/size       domain/mem-pool           c-type          fmt                      comment
------------------------------------------------------------------------------------------------------------------------------------
0      serving_default_input_10_output   7500/7500       user/                     int8_t          int8/sa                  /input 
1      conv2d_0_output                   30048/30048     activations/**default**   int8_t          int8/sa                         
2      conv2d_2_output                   15072/15072     activations/**default**   int8_t          int8/sa                         
3      conv2d_4_output                   10176/10176     activations/**default**   int8_t          int8/sa                         
4      conv2d_6_output                   6912/6912       activations/**default**   int8_t          int8/sa                         
5      conv2d_8_output                   4608/4608       activations/**default**   int8_t          int8/sa                         
6      pool_10_output                    256/256         activations/**default**   int8_t          int8/sa                         
7      dense_12_output                   32/32           activations/**default**   int8_t          int8/sa                         
8      dense_13_output                   16/16           activations/**default**   int8_t          int8/sa                         
9      dense_14_output                   8/8             activations/**default**   int8_t          int8/sa                         
10     dense_15_output                   3/3             activations/**default**   int8_t          int8/sa                         
11     dense_15_0_conversion_output      3/12            activations/**default**   float           float                           
12     nl_16_output                      3/12            activations/**default**   float           float                           
13     nl_16_0_conversion_output         3/3             user/                     int8_t          int8/sa                  /output
14     conv2d_0_weights                  144/144         weights/                  const int8_t    int8/sa/channel (16)            
15     conv2d_0_bias                     16/64           weights/                  const int32_t   int32/sa/channel (16)           
16     conv2d_2_weights                  7680/7680       weights/                  const int8_t    int8/sa/channel (32)            
17     conv2d_2_bias                     32/128          weights/                  const int32_t   int32/sa/channel (32)           
18     conv2d_4_weights                  30720/30720     weights/                  const int8_t    int8/sa/channel (64)            
19     conv2d_4_bias                     64/256          weights/                  const int32_t   int32/sa/channel (64)           
20     conv2d_6_weights                  122880/122880   weights/                  const int8_t    int8/sa/channel (128)           
21     conv2d_6_bias                     128/512         weights/                  const int32_t   int32/sa/channel (128)          
22     conv2d_8_weights                  491520/491520   weights/                  const int8_t    int8/sa/channel (256)           
23     conv2d_8_bias                     256/1024        weights/                  const int32_t   int32/sa/channel (256)          
24     dense_12_weights                  8192/8192       weights/                  const int8_t    int8/sa                         
25     dense_12_bias                     32/128          weights/                  const int32_t   int32/sa                        
26     dense_13_weights                  512/512         weights/                  const int8_t    int8/sa                         
27     dense_13_bias                     16/64           weights/                  const int32_t   int32/sa                        
28     dense_14_weights                  128/128         weights/                  const int8_t    int8/sa                         
29     dense_14_bias                     8/32            weights/                  const int32_t   int32/sa                        
30     dense_15_weights                  24/24           weights/                  const int8_t    int8/sa                         
31     dense_15_bias                     3/12            weights/                  const int32_t   int32/sa                        
32     conv2d_0_scratch0                 548/548         activations/**default**   int8_t          int/ss                          
33     conv2d_0_scratch1                 576/576         activations/**default**   int8_t          int8/sa                         
34     conv2d_2_scratch0                 6528/6528       activations/**default**   int8_t          int/ss                          
35     conv2d_2_scratch1                 960/960         activations/**default**   int8_t          int8/sa                         
36     conv2d_4_scratch0                 7936/7936       activations/**default**   int8_t          int/ss                          
37     conv2d_4_scratch1                 960/960         activations/**default**   int8_t          int8/sa                         
38     conv2d_6_scratch0                 10752/10752     activations/**default**   int8_t          int/ss                          
39     conv2d_6_scratch1                 1920/1920       activations/**default**   int8_t          int8/sa                         
40     conv2d_8_scratch0                 16384/16384     activations/**default**   int8_t          int/ss                          
41     conv2d_8_scratch1                 3840/3840       activations/**default**   int8_t          int8/sa                         
------------------------------------------------------------------------------------------------------------------------------------

C-Layers (13)
-----------------------------------------------------------------------------------------------------------------------------------
c_id   name (*_layer)          id   layer_type         macc       rom      tensors                              shape (array id)  
-----------------------------------------------------------------------------------------------------------------------------------
0      conv2d_0                1    optimized_conv2d   1350448    208      I: serving_default_input_10_output   (1,625,12,1) (0)  
                                                                           S: conv2d_0_scratch0                                   
                                                                           S: conv2d_0_scratch1                                   
                                                                           W: conv2d_0_weights                  (1,16,3,3) (14)   
                                                                           W: conv2d_0_bias                     (1,1,1,16) (15)   
                                                                           O: conv2d_0_output                   (1,313,6,16) (1)  
-----------------------------------------------------------------------------------------------------------------------------------
1      conv2d_2                3    optimized_conv2d   14649152   7808     I: conv2d_0_output                   (1,313,6,16) (1)  
                                                                           S: conv2d_2_scratch0                                   
                                                                           S: conv2d_2_scratch1                                   
                                                                           W: conv2d_2_weights                  (16,32,5,3) (16)  
                                                                           W: conv2d_2_bias                     (1,1,1,32) (17)   
                                                                           O: conv2d_2_output                   (1,157,3,32) (2)  
-----------------------------------------------------------------------------------------------------------------------------------
2      conv2d_4                5    optimized_conv2d   14621824   30976    I: conv2d_2_output                   (1,157,3,32) (2)  
                                                                           S: conv2d_4_scratch0                                   
                                                                           S: conv2d_4_scratch1                                   
                                                                           W: conv2d_4_weights                  (32,64,5,3) (18)  
                                                                           W: conv2d_4_bias                     (1,1,1,64) (19)   
                                                                           O: conv2d_4_output                   (1,53,3,64) (3)   
-----------------------------------------------------------------------------------------------------------------------------------
3      conv2d_6                7    optimized_conv2d   19641728   123392   I: conv2d_4_output                   (1,53,3,64) (3)   
                                                                           S: conv2d_6_scratch0                                   
                                                                           S: conv2d_6_scratch1                                   
                                                                           W: conv2d_6_weights                  (64,128,5,3) (20) 
                                                                           W: conv2d_6_bias                     (1,1,1,128) (21)  
                                                                           O: conv2d_6_output                   (1,18,3,128) (4)  
-----------------------------------------------------------------------------------------------------------------------------------
4      conv2d_8                9    optimized_conv2d   26611456   492544   I: conv2d_6_output                   (1,18,3,128) (4)  
                                                                           S: conv2d_8_scratch0                                   
                                                                           S: conv2d_8_scratch1                                   
                                                                           W: conv2d_8_weights                  (128,256,5,3) (22)
                                                                           W: conv2d_8_bias                     (1,1,1,256) (23)  
                                                                           O: conv2d_8_output                   (1,6,3,256) (5)   
-----------------------------------------------------------------------------------------------------------------------------------
5      pool_10                 10   pool               4608       0        I: conv2d_8_output                   (1,6,3,256) (5)   
                                                                           O: pool_10_output                    (1,1,1,256) (6)   
-----------------------------------------------------------------------------------------------------------------------------------
6      dense_12                12   dense              8224       8320     I: pool_10_output                    (1,1,1,256) (6)   
                                                                           W: dense_12_weights                  (256,1,1,32) (24) 
                                                                           W: dense_12_bias                     (1,1,1,32) (25)   
                                                                           O: dense_12_output                   (1,1,1,32) (7)    
-----------------------------------------------------------------------------------------------------------------------------------
7      dense_13                13   dense              528        576      I: dense_12_output                   (1,1,1,32) (7)    
                                                                           W: dense_13_weights                  (32,1,1,16) (26)  
                                                                           W: dense_13_bias                     (1,1,1,16) (27)   
                                                                           O: dense_13_output                   (1,1,1,16) (8)    
-----------------------------------------------------------------------------------------------------------------------------------
8      dense_14                14   dense              136        160      I: dense_13_output                   (1,1,1,16) (8)    
                                                                           W: dense_14_weights                  (16,1,1,8) (28)   
                                                                           W: dense_14_bias                     (1,1,1,8) (29)    
                                                                           O: dense_14_output                   (1,1,1,8) (9)     
-----------------------------------------------------------------------------------------------------------------------------------
9      dense_15                15   dense              27         36       I: dense_14_output                   (1,1,1,8) (9)     
                                                                           W: dense_15_weights                  (8,1,1,3) (30)    
                                                                           W: dense_15_bias                     (1,1,1,3) (31)    
                                                                           O: dense_15_output                   (1,1,1,3) (10)    
-----------------------------------------------------------------------------------------------------------------------------------
10     dense_15_0_conversion   15   conv               6          0        I: dense_15_output                   (1,1,1,3) (10)    
                                                                           O: dense_15_0_conversion_output      (1,1,1,3) (11)    
-----------------------------------------------------------------------------------------------------------------------------------
11     nl_16                   16   nl                 45         0        I: dense_15_0_conversion_output      (1,1,1,3) (11)    
                                                                           O: nl_16_output                      (1,1,1,3) (12)    
-----------------------------------------------------------------------------------------------------------------------------------
12     nl_16_0_conversion      16   conv               6          0        I: nl_16_output                      (1,1,1,3) (12)    
                                                                           O: nl_16_0_conversion_output         (1,1,1,3) (13)    
-----------------------------------------------------------------------------------------------------------------------------------



Complexity report per layer - macc=76,888,188 weights=664,020 act=37,888 ram_io=7,503
-----------------------------------------------------------------------------
id   name       c_macc                    c_rom                     c_id    
-----------------------------------------------------------------------------
0    conv2d_0   |                  1.8%   |                  0.0%   [0]     
2    conv2d_2   |||||||||         19.1%   |                  1.2%   [1]     
4    conv2d_4   |||||||||         19.0%   |                  4.7%   [2]     
6    conv2d_6   ||||||||||||      25.5%   ||||              18.6%   [3]     
8    conv2d_8   ||||||||||||||||  34.6%   ||||||||||||||||  74.2%   [4]     
10   pool_10    |                  0.0%   |                  0.0%   [5]     
12   dense_12   |                  0.0%   |                  1.3%   [6]     
13   dense_13   |                  0.0%   |                  0.1%   [7]     
14   dense_14   |                  0.0%   |                  0.0%   [8]     
15   dense_15   |                  0.0%   |                  0.0%   [9, 10] 
16   nl_16      |                  0.0%   |                  0.0%   [11, 12]

Generated files (5)
-----------------------------------------------------------------------------------------------------
C:\Users\fphal\.stm32cubemx\language_classification_output\language_classification_config.h
C:\Users\fphal\.stm32cubemx\language_classification_output\language_classification.h
C:\Users\fphal\.stm32cubemx\language_classification_output\language_classification.c
C:\Users\fphal\.stm32cubemx\language_classification_output\language_classification_data.h
C:\Users\fphal\.stm32cubemx\language_classification_output\language_classification_data.c
